…
                  (L_2): Dropout(p=0.1, inplace=False)
                  (L_3): Dropout(p=0.1, inplace=False)
                  (L_4): Dropout(p=0.1, inplace=False)
                  (L_5): Dropout(p=0.1, inplace=False)
                  (L_6): Dropout(p=0.1, inplace=False)
                  (L_7): Dropout(p=0.1, inplace=False)
                  (L_8): Dropout(p=0.1, inplace=False)
                  (L_9): Dropout(p=0.1, inplace=False)
                  (L_10): Dropout(p=0.1, inplace=False)
                  (L_11): Dropout(p=0.1, inplace=False)
                )
                (lora_A): ModuleDict(
                  (L_0): Linear(in_features=1600, out_features=5, bias=False)
                  (L_1): Linear(in_features=1600, out_features=5, bias=False)
                  (L_2): Linear(in_features=1600, out_features=5, bias=False)
                  (L_3): Linear(in_features=1600, out_features=5, bias=False)
                  (L_4): Linear(in_features=1600, out_features=5, bias=False)
                  (L_5): Linear(in_features=1600, out_features=5, bias=False)
                  (L_6): Linear(in_features=1600, out_features=5, bias=False)
                  (L_7): Linear(in_features=1600, out_features=5, bias=False)
                  (L_8): Linear(in_features=1600, out_features=5, bias=False)
                  (L_9): Linear(in_features=1600, out_features=5, bias=False)
                  (L_10): Linear(in_features=1600, out_features=5, bias=False)
                  (L_11): Linear(in_features=1600, out_features=5, bias=False)
                )
                (lora_B): ModuleDict(
                  (L_0): Linear(in_features=5, out_features=4800, bias=False)
                  (L_1): Linear(in_features=5, out_features=4800, bias=False)
                  (L_2): Linear(in_features=5, out_features=4800, bias=False)
                  (L_3): Linear(in_features=5, out_features=4800, bias=False)
                  (L_4): Linear(in_features=5, out_features=4800, bias=False)
                  (L_5): Linear(in_features=5, out_features=4800, bias=False)
                  (L_6): Linear(in_features=5, out_features=4800, bias=False)
                  (L_7): Linear(in_features=5, out_features=4800, bias=False)
                  (L_8): Linear(in_features=5, out_features=4800, bias=False)
                  (L_9): Linear(in_features=5, out_features=4800, bias=False)
                  (L_10): Linear(in_features=5, out_features=4800, bias=False)
                  (L_11): Linear(in_features=5, out_features=4800, bias=False)
                )
                (proj): ModuleDict(
                  (L_0): Linear(in_features=4800, out_features=1600, bias=False)
                  (L_1): Linear(in_features=4800, out_features=1600, bias=False)
                  (L_2): Linear(in_features=4800, out_features=1600, bias=False)
                  (L_3): Linear(in_features=4800, out_features=1600, bias=False)
                  (L_4): Linear(in_features=4800, out_features=1600, bias=False)
                  (L_5): Linear(in_features=4800, out_features=1600, bias=False)
                  (L_6): Linear(in_features=4800, out_features=1600, bias=False)
                )
                (lora_embedding_A): ParameterDict()
                (lora_embedding_B): ParameterDict()
                (lora_magnitude_vector): ModuleDict()
              )
              (c_proj): lora.Linear(
                (base_layer): Conv1D(nf=1600, nx=1600)
                (lora_dropout): ModuleDict(
                  (L_0): Dropout(p=0.1, inplace=False)
…
                  (L_2): Dropout(p=0.1, inplace=False)
                  (L_3): Dropout(p=0.1, inplace=False)
                  (L_4): Dropout(p=0.1, inplace=False)
                  (L_5): Dropout(p=0.1, inplace=False)
                  (L_6): Dropout(p=0.1, inplace=False)
                  (L_7): Dropout(p=0.1, inplace=False)
                  (L_8): Dropout(p=0.1, inplace=False)
                  (L_9): Dropout(p=0.1, inplace=False)
                  (L_10): Dropout(p=0.1, inplace=False)
                  (L_11): Dropout(p=0.1, inplace=False)
                )
                (lora_A): ModuleDict(
                  (L_0): Linear(in_features=1600, out_features=5, bias=False)
                  (L_1): Linear(in_features=1600, out_features=5, bias=False)
                  (L_2): Linear(in_features=1600, out_features=5, bias=False)
                  (L_3): Linear(in_features=1600, out_features=5, bias=False)
                  (L_4): Linear(in_features=1600, out_features=5, bias=False)
                  (L_5): Linear(in_features=1600, out_features=5, bias=False)
                  (L_6): Linear(in_features=1600, out_features=5, bias=False)
                  (L_7): Linear(in_features=1600, out_features=5, bias=False)
                  (L_8): Linear(in_features=1600, out_features=5, bias=False)
                  (L_9): Linear(in_features=1600, out_features=5, bias=False)
                  (L_10): Linear(in_features=1600, out_features=5, bias=False)
                  (L_11): Linear(in_features=1600, out_features=5, bias=False)
                )
                (lora_B): ModuleDict(
                  (L_0): Linear(in_features=5, out_features=1600, bias=False)
                  (L_1): Linear(in_features=5, out_features=1600, bias=False)
                  (L_2): Linear(in_features=5, out_features=1600, bias=False)
                  (L_3): Linear(in_features=5, out_features=1600, bias=False)
                  (L_4): Linear(in_features=5, out_features=1600, bias=False)
                  (L_5): Linear(in_features=5, out_features=1600, bias=False)
                  (L_6): Linear(in_features=5, out_features=1600, bias=False)
                  (L_7): Linear(in_features=5, out_features=1600, bias=False)
                  (L_8): Linear(in_features=5, out_features=1600, bias=False)
                  (L_9): Linear(in_features=5, out_features=1600, bias=False)
                  (L_10): Linear(in_features=5, out_features=1600, bias=False)
                  (L_11): Linear(in_features=5, out_features=1600, bias=False)
                )
                (proj): ModuleDict(
                  (L_0): Linear(in_features=1600, out_features=1600, bias=False)
                  (L_1): Linear(in_features=1600, out_features=1600, bias=False)
                  (L_2): Linear(in_features=1600, out_features=1600, bias=False)
                  (L_3): Linear(in_features=1600, out_features=1600, bias=False)
                  (L_4): Linear(in_features=1600, out_features=1600, bias=False)
                  (L_5): Linear(in_features=1600, out_features=1600, bias=False)
                  (L_6): Linear(in_features=1600, out_features=1600, bias=False)
                )
                (lora_embedding_A): ParameterDict()
                (lora_embedding_B): ParameterDict()
                (lora_magnitude_vector): ModuleDict()
              )
              (attn_dropout): Dropout(p=0.1, inplace=False)
              (resid_dropout): Dropout(p=0.1, inplace=False)
            )
            (ln_2): LayerNorm((1600,), eps=1e-05, elementwise_affine=True)
            (mlp): GPT2MLP(
              (c_fc): Conv1D(nf=6400, nx=1600)
              (c_proj): lora.Linear(
                (base_layer): Conv1D(nf=1600, nx=6400)
                (lora_dropout): ModuleDict(
                  (L_0): Dropout(p=0.1, inplace=False)
                  (L_1): Dropout(p=0.1, inplace=False)
                  (L_2): Dropout(p=0.1, inplace=False)
                  (L_3): Dropout(p=0.1, inplace=False)
                  (L_4): Dropout(p=0.1, inplace=False)
                  (L_5): Dropout(p=0.1, inplace=False)
                  (L_6): Dropout(p=0.1, inplace=False)
                  (L_7): Dropout(p=0.1, inplace=False)
                  (L_8): Dropout(p=0.1, inplace=False)
                  (L_9): Dropout(p=0.1, inplace=False)
                  (L_10): Dropout(p=0.1, inplace=False)
                  (L_11): Dropout(p=0.1, inplace=False)
                )
                (lora_A): ModuleDict(
                  (L_0): Linear(in_features=6400, out_features=5, bias=False)
                  (L_1): Linear(in_features=6400, out_features=5, bias=False)
                  (L_2): Linear(in_features=6400, out_features=5, bias=False)
                  (L_3): Linear(in_features=6400, out_features=5, bias=False)
                  (L_4): Linear(in_features=6400, out_features=5, bias=False)
                  (L_5): Linear(in_features=6400, out_features=5, bias=False)
                  (L_6): Linear(in_features=6400, out_features=5, bias=False)
                  (L_7): Linear(in_features=6400, out_features=5, bias=False)
                  (L_8): Linear(in_features=6400, out_features=5, bias=False)
                  (L_9): Linear(in_features=6400, out_features=5, bias=False)
                  (L_10): Linear(in_features=6400, out_features=5, bias=False)
                  (L_11): Linear(in_features=6400, out_features=5, bias=False)
                )
                (lora_B): ModuleDict(
                  (L_0): Linear(in_features=5, out_features=1600, bias=False)
                  (L_1): Linear(in_features=5, out_features=1600, bias=False)
                  (L_2): Linear(in_features=5, out_features=1600, bias=False)
                  (L_3): Linear(in_features=5, out_features=1600, bias=False)
                  (L_4): Linear(in_features=5, out_features=1600, bias=False)
                  (L_5): Linear(in_features=5, out_features=1600, bias=False)
                  (L_6): Linear(in_features=5, out_features=1600, bias=False)
                  (L_7): Linear(in_features=5, out_features=1600, bias=False)
                  (L_8): Linear(in_features=5, out_features=1600, bias=False)
                  (L_9): Linear(in_features=5, out_features=1600, bias=False)
                  (L_10): Linear(in_features=5, out_features=1600, bias=False)
                  (L_11): Linear(in_features=5, out_features=1600, bias=False)
                )
                (proj): ModuleDict(
                  (L_0): Linear(in_features=1600, out_features=6400, bias=False)
                  (L_1): Linear(in_features=1600, out_features=6400, bias=False)
                  (L_2): Linear(in_features=1600, out_features=6400, bias=False)
                  (L_3): Linear(in_features=1600, out_features=6400, bias=False)
                  (L_4): Linear(in_features=1600, out_features=6400, bias=False)
                  (L_5): Linear(in_features=1600, out_features=6400, bias=False)
                  (L_6): Linear(in_features=1600, out_features=6400, bias=False)
                )
                (lora_embedding_A): ParameterDict()
                (lora_embedding_B): ParameterDict()
                (lora_magnitude_vector): ModuleDict()
              )
              (act): NewGELUActivation()
              (dropout): Dropout(p=0.1, inplace=False)
            )
          )
        )
        (ln_f): LayerNorm((1600,), eps=1e-05, elementwise_affine=True)
      )
      (lm_head): Linear(in_features=1600, out_features=50257, bias=False)
    )
  )
)